…
2025-05-15 11:38:37,323 - INFO - GPU Speicher belegt: 115.93 MB, reserviert: 1940.00 MB
2025-05-15 11:38:37,326 - INFO - Accuracy:  0.8174
2025-05-15 11:38:37,326 - INFO - Precision: 1.0000
2025-05-15 11:38:37,326 - INFO - Recall:    0.6348
2025-05-15 11:38:37,326 - INFO - F1-Score:  0.7766
2025-05-15 11:38:37,327 - INFO - Confusion Matrix: TN=178, FP=0, FN=65, TP=113
2025-05-15 11:38:37,327 - INFO - Durchschnittliche Vorhersagezeit pro Bild: 0.0002 Sekunden
2025-05-15 11:38:37,327 - INFO - Target-Layer für Grad-CAM: XceptionModule(
  (stack): Sequential(
    (conv1): SeparableConv2d(
      (conv_dw): Conv2d(1024, 1024, kernel_size=(3, 3), stride=(1, 1), padding=(1, 1), groups=1024, bias=False)
      (bn_dw): BatchNorm2d(1024, eps=0.001, momentum=0.1, affine=True, track_running_stats=True)
      (act_dw): ReLU(inplace=True)
      (conv_pw): Conv2d(1024, 1536, kernel_size=(1, 1), stride=(1, 1), bias=False)
      (bn_pw): BatchNorm2d(1536, eps=0.001, momentum=0.1, affine=True, track_running_stats=True)
      (act_pw): ReLU(inplace=True)
    )
    (conv2): SeparableConv2d(
      (conv_dw): Conv2d(1536, 1536, kernel_size=(3, 3), stride=(1, 1), padding=(1, 1), groups=1536, bias=False)
      (bn_dw): BatchNorm2d(1536, eps=0.001, momentum=0.1, affine=True, track_running_stats=True)
      (act_dw): ReLU(inplace=True)
      (conv_pw): Conv2d(1536, 1536, kernel_size=(1, 1), stride=(1, 1), bias=False)
      (bn_pw): BatchNorm2d(1536, eps=0.001, momentum=0.1, affine=True, track_running_stats=True)
      (act_pw): ReLU(inplace=True)
    )
    (conv3): SeparableConv2d(
      (conv_dw): Conv2d(1536, 1536, kernel_size=(3, 3), stride=(1, 1), padding=(1, 1), groups=1536, bias=False)
      (bn_dw): BatchNorm2d(1536, eps=0.001, momentum=0.1, affine=True, track_running_stats=True)
      (act_dw): ReLU(inplace=True)
      (conv_pw): Conv2d(1536, 2048, kernel_size=(1, 1), stride=(1, 1), bias=False)
      (bn_pw): BatchNorm2d(2048, eps=0.001, momentum=0.1, affine=True, track_running_stats=True)
      (act_pw): ReLU(inplace=True)
    )
  )
)
2025-05-15 11:38:37,387 - INFO - Grad-CAM gespeichert: gradcam\celebdf_only\xception41\standard\TN_fake_1.jpg
2025-05-15 11:38:37,407 - INFO - Grad-CAM gespeichert: gradcam\celebdf_only\xception41\standard\TN_fake_2.jpg
2025-05-15 11:38:37,430 - INFO - Grad-CAM gespeichert: gradcam\celebdf_only\xception41\standard\TP_real_1.jpg
…
