…
2025-05-19 07:59:59,147 - INFO - GPU Speicher belegt: 114.21 MB, reserviert: 1940.00 MB
2025-05-19 07:59:59,151 - INFO - Accuracy:  0.5694
2025-05-19 07:59:59,151 - INFO - Precision: 0.5345
2025-05-19 07:59:59,151 - INFO - Recall:    0.8782
2025-05-19 07:59:59,151 - INFO - F1-Score:  0.6645
2025-05-19 07:59:59,151 - INFO - Confusion Matrix: TN=174, FP=452, FN=72, TP=519
2025-05-19 07:59:59,151 - INFO - Durchschnittliche Vorhersagezeit pro Bild: 0.0001 Sekunden
2025-05-19 07:59:59,153 - INFO - Target-Layer für Grad-CAM: XceptionModule(
  (stack): Sequential(
    (conv1): SeparableConv2d(
      (conv_dw): Conv2d(1024, 1024, kernel_size=(3, 3), stride=(1, 1), padding=(1, 1), groups=1024, bias=False)
      (bn_dw): BatchNorm2d(1024, eps=0.001, momentum=0.1, affine=True, track_running_stats=True)
      (act_dw): ReLU(inplace=True)
      (conv_pw): Conv2d(1024, 1536, kernel_size=(1, 1), stride=(1, 1), bias=False)
      (bn_pw): BatchNorm2d(1536, eps=0.001, momentum=0.1, affine=True, track_running_stats=True)
      (act_pw): ReLU(inplace=True)
    )
    (conv2): SeparableConv2d(
      (conv_dw): Conv2d(1536, 1536, kernel_size=(3, 3), stride=(1, 1), padding=(1, 1), groups=1536, bias=False)
      (bn_dw): BatchNorm2d(1536, eps=0.001, momentum=0.1, affine=True, track_running_stats=True)
      (act_dw): ReLU(inplace=True)
      (conv_pw): Conv2d(1536, 1536, kernel_size=(1, 1), stride=(1, 1), bias=False)
      (bn_pw): BatchNorm2d(1536, eps=0.001, momentum=0.1, affine=True, track_running_stats=True)
      (act_pw): ReLU(inplace=True)
    )
    (conv3): SeparableConv2d(
      (conv_dw): Conv2d(1536, 1536, kernel_size=(3, 3), stride=(1, 1), padding=(1, 1), groups=1536, bias=False)
      (bn_dw): BatchNorm2d(1536, eps=0.001, momentum=0.1, affine=True, track_running_stats=True)
      (act_dw): ReLU(inplace=True)
      (conv_pw): Conv2d(1536, 2048, kernel_size=(1, 1), stride=(1, 1), bias=False)
      (bn_pw): BatchNorm2d(2048, eps=0.001, momentum=0.1, affine=True, track_running_stats=True)
      (act_pw): ReLU(inplace=True)
    )
  )
)
2025-05-19 07:59:59,162 - INFO - CAM-Auswahl gespeichert: gradcam\celebdf_train_ff_test\xception41\standard\cam_selection.csv
2025-05-19 07:59:59,194 - INFO - Grad-CAM gespeichert: gradcam\celebdf_train_ff_test\xception41\standard\FN_real_721.jpg
2025-05-19 07:59:59,218 - INFO - Grad-CAM gespeichert: gradcam\celebdf_train_ff_test\xception41\standard\FN_real_1169.jpg
…
