…
2025-05-23 13:13:07,195 - INFO - Accuracy:  0.5245
2025-05-23 13:13:07,206 - INFO - Precision: 0.8919
2025-05-23 13:13:07,206 - INFO - Recall:    0.0558
2025-05-23 13:13:07,206 - INFO - F1-Score:  0.1051
2025-05-23 13:13:07,206 - INFO - Confusion Matrix: TN=587, FP=4, FN=558, TP=33
2025-05-23 13:13:07,206 - INFO - Durchschnittliche Vorhersagezeit pro Bild: 0.0001 Sekunden
2025-05-23 13:13:07,207 - INFO - Modellgröße: 95.7 MB
2025-05-23 13:13:07,207 - INFO - Anzahl der Parameter: 24924658
2025-05-23 13:13:07,207 - INFO - Target-Layer für Grad-CAM: XceptionModule(
  (stack): Sequential(
    (conv1): SeparableConv2d(
      (conv_dw): Conv2d(1024, 1024, kernel_size=(3, 3), stride=(1, 1), padding=(1, 1), groups=1024, bias=False)
      (bn_dw): BatchNorm2d(1024, eps=0.001, momentum=0.1, affine=True, track_running_stats=True)
      (act_dw): ReLU(inplace=True)
      (conv_pw): Conv2d(1024, 1536, kernel_size=(1, 1), stride=(1, 1), bias=False)
      (bn_pw): BatchNorm2d(1536, eps=0.001, momentum=0.1, affine=True, track_running_stats=True)
      (act_pw): ReLU(inplace=True)
    )
    (conv2): SeparableConv2d(
      (conv_dw): Conv2d(1536, 1536, kernel_size=(3, 3), stride=(1, 1), padding=(1, 1), groups=1536, bias=False)
      (bn_dw): BatchNorm2d(1536, eps=0.001, momentum=0.1, affine=True, track_running_stats=True)
      (act_dw): ReLU(inplace=True)
      (conv_pw): Conv2d(1536, 1536, kernel_size=(1, 1), stride=(1, 1), bias=False)
      (bn_pw): BatchNorm2d(1536, eps=0.001, momentum=0.1, affine=True, track_running_stats=True)
      (act_pw): ReLU(inplace=True)
    )
    (conv3): SeparableConv2d(
      (conv_dw): Conv2d(1536, 1536, kernel_size=(3, 3), stride=(1, 1), padding=(1, 1), groups=1536, bias=False)
      (bn_dw): BatchNorm2d(1536, eps=0.001, momentum=0.1, affine=True, track_running_stats=True)
      (act_dw): ReLU(inplace=True)
      (conv_pw): Conv2d(1536, 2048, kernel_size=(1, 1), stride=(1, 1), bias=False)
      (bn_pw): BatchNorm2d(2048, eps=0.001, momentum=0.1, affine=True, track_running_stats=True)
      (act_pw): ReLU(inplace=True)
    )
  )
)
2025-05-23 13:13:07,216 - INFO - CAM-Auswahl gespeichert: gradcam\celebdf_train_ff_test\xception41\noisy\cam_selection.csv
2025-05-23 13:13:07,250 - INFO - Grad-CAM gespeichert: gradcam\celebdf_train_ff_test\xception41\noisy\FN_1_fake_750.jpg
2025-05-23 13:13:07,275 - INFO - Grad-CAM gespeichert: gradcam\celebdf_train_ff_test\xception41\noisy\FN_1_fake_1054.jpg
…
