…
2025-05-07 10:28:27,671 - INFO - GPU Speicher belegt: 114.21 MB, reserviert: 1940.00 MB
2025-05-07 10:28:27,676 - INFO - Accuracy:  0.6960
2025-05-07 10:28:27,676 - INFO - Precision: 0.6460
2025-05-07 10:28:27,676 - INFO - Recall:    0.8274
2025-05-07 10:28:27,685 - INFO - F1-Score:  0.7255
2025-05-07 10:28:27,685 - INFO - Confusion Matrix: TN=358, FP=268, FN=102, TP=489
2025-05-07 10:28:27,685 - INFO - Durchschnittliche Vorhersagezeit pro Bild: 0.0001 Sekunden
2025-05-07 10:28:27,685 - INFO - Target-Layer für Grad-CAM: XceptionModule(
  (stack): Sequential(
    (conv1): SeparableConv2d(
      (conv_dw): Conv2d(1024, 1024, kernel_size=(3, 3), stride=(1, 1), padding=(1, 1), groups=1024, bias=False)
      (bn_dw): BatchNorm2d(1024, eps=0.001, momentum=0.1, affine=True, track_running_stats=True)
      (act_dw): ReLU(inplace=True)
      (conv_pw): Conv2d(1024, 1536, kernel_size=(1, 1), stride=(1, 1), bias=False)
      (bn_pw): BatchNorm2d(1536, eps=0.001, momentum=0.1, affine=True, track_running_stats=True)
      (act_pw): ReLU(inplace=True)
    )
    (conv2): SeparableConv2d(
      (conv_dw): Conv2d(1536, 1536, kernel_size=(3, 3), stride=(1, 1), padding=(1, 1), groups=1536, bias=False)
      (bn_dw): BatchNorm2d(1536, eps=0.001, momentum=0.1, affine=True, track_running_stats=True)
      (act_dw): ReLU(inplace=True)
      (conv_pw): Conv2d(1536, 1536, kernel_size=(1, 1), stride=(1, 1), bias=False)
      (bn_pw): BatchNorm2d(1536, eps=0.001, momentum=0.1, affine=True, track_running_stats=True)
      (act_pw): ReLU(inplace=True)
    )
    (conv3): SeparableConv2d(
      (conv_dw): Conv2d(1536, 1536, kernel_size=(3, 3), stride=(1, 1), padding=(1, 1), groups=1536, bias=False)
      (bn_dw): BatchNorm2d(1536, eps=0.001, momentum=0.1, affine=True, track_running_stats=True)
      (act_dw): ReLU(inplace=True)
      (conv_pw): Conv2d(1536, 2048, kernel_size=(1, 1), stride=(1, 1), bias=False)
      (bn_pw): BatchNorm2d(2048, eps=0.001, momentum=0.1, affine=True, track_running_stats=True)
      (act_pw): ReLU(inplace=True)
    )
  )
)
2025-05-07 10:28:27,717 - INFO - Grad-CAM gespeichert: gradcam\augmented\xception41\standard\TN_fake_1.jpg
2025-05-07 10:28:27,747 - INFO - Grad-CAM gespeichert: gradcam\augmented\xception41\standard\TN_fake_2.jpg
2025-05-07 10:28:27,780 - INFO - Grad-CAM gespeichert: gradcam\augmented\xception41\standard\FN_real_1.jpg
…
