…
2025-05-23 08:59:42,538 - INFO - Accuracy:  0.8230
2025-05-23 08:59:42,538 - INFO - Precision: 0.7386
2025-05-23 08:59:42,548 - INFO - Recall:    1.0000
2025-05-23 08:59:42,548 - INFO - F1-Score:  0.8496
2025-05-23 08:59:42,548 - INFO - Confusion Matrix: TN=115, FP=63, FN=0, TP=178
2025-05-23 08:59:42,548 - INFO - Durchschnittliche Vorhersagezeit pro Bild: 0.0002 Sekunden
2025-05-23 08:59:42,549 - INFO - Modellgröße: 95.7 MB
2025-05-23 08:59:42,549 - INFO - Anzahl der Parameter: 24924658
2025-05-23 08:59:42,549 - INFO - Target-Layer für Grad-CAM: XceptionModule(
  (stack): Sequential(
    (conv1): SeparableConv2d(
      (conv_dw): Conv2d(1024, 1024, kernel_size=(3, 3), stride=(1, 1), padding=(1, 1), groups=1024, bias=False)
      (bn_dw): BatchNorm2d(1024, eps=0.001, momentum=0.1, affine=True, track_running_stats=True)
      (act_dw): ReLU(inplace=True)
      (conv_pw): Conv2d(1024, 1536, kernel_size=(1, 1), stride=(1, 1), bias=False)
      (bn_pw): BatchNorm2d(1536, eps=0.001, momentum=0.1, affine=True, track_running_stats=True)
      (act_pw): ReLU(inplace=True)
    )
    (conv2): SeparableConv2d(
      (conv_dw): Conv2d(1536, 1536, kernel_size=(3, 3), stride=(1, 1), padding=(1, 1), groups=1536, bias=False)
      (bn_dw): BatchNorm2d(1536, eps=0.001, momentum=0.1, affine=True, track_running_stats=True)
      (act_dw): ReLU(inplace=True)
      (conv_pw): Conv2d(1536, 1536, kernel_size=(1, 1), stride=(1, 1), bias=False)
      (bn_pw): BatchNorm2d(1536, eps=0.001, momentum=0.1, affine=True, track_running_stats=True)
      (act_pw): ReLU(inplace=True)
    )
    (conv3): SeparableConv2d(
      (conv_dw): Conv2d(1536, 1536, kernel_size=(3, 3), stride=(1, 1), padding=(1, 1), groups=1536, bias=False)
      (bn_dw): BatchNorm2d(1536, eps=0.001, momentum=0.1, affine=True, track_running_stats=True)
      (act_dw): ReLU(inplace=True)
      (conv_pw): Conv2d(1536, 2048, kernel_size=(1, 1), stride=(1, 1), bias=False)
      (bn_pw): BatchNorm2d(2048, eps=0.001, momentum=0.1, affine=True, track_running_stats=True)
      (act_pw): ReLU(inplace=True)
    )
  )
)
2025-05-23 08:59:42,554 - INFO - CAM-Auswahl gespeichert: gradcam\celebdf_only\xception41\standard\cam_selection.csv
2025-05-23 08:59:42,606 - INFO - Grad-CAM gespeichert: gradcam\celebdf_only\xception41\standard\FP_0_real_177.jpg
2025-05-23 08:59:42,625 - INFO - Grad-CAM gespeichert: gradcam\celebdf_only\xception41\standard\FP_0_real_170.jpg
…
