…
2025-05-23 13:13:21,206 - INFO - Accuracy:  0.6024
2025-05-23 13:13:21,216 - INFO - Precision: 0.8712
2025-05-23 13:13:21,216 - INFO - Recall:    0.2403
2025-05-23 13:13:21,216 - INFO - F1-Score:  0.3767
2025-05-23 13:13:21,216 - INFO - Confusion Matrix: TN=570, FP=21, FN=449, TP=142
2025-05-23 13:13:21,216 - INFO - Durchschnittliche Vorhersagezeit pro Bild: 0.0001 Sekunden
2025-05-23 13:13:21,217 - INFO - Modellgröße: 95.7 MB
2025-05-23 13:13:21,217 - INFO - Anzahl der Parameter: 24924658
2025-05-23 13:13:21,217 - INFO - Target-Layer für Grad-CAM: XceptionModule(
  (stack): Sequential(
    (conv1): SeparableConv2d(
      (conv_dw): Conv2d(1024, 1024, kernel_size=(3, 3), stride=(1, 1), padding=(1, 1), groups=1024, bias=False)
      (bn_dw): BatchNorm2d(1024, eps=0.001, momentum=0.1, affine=True, track_running_stats=True)
      (act_dw): ReLU(inplace=True)
      (conv_pw): Conv2d(1024, 1536, kernel_size=(1, 1), stride=(1, 1), bias=False)
      (bn_pw): BatchNorm2d(1536, eps=0.001, momentum=0.1, affine=True, track_running_stats=True)
      (act_pw): ReLU(inplace=True)
    )
    (conv2): SeparableConv2d(
      (conv_dw): Conv2d(1536, 1536, kernel_size=(3, 3), stride=(1, 1), padding=(1, 1), groups=1536, bias=False)
      (bn_dw): BatchNorm2d(1536, eps=0.001, momentum=0.1, affine=True, track_running_stats=True)
      (act_dw): ReLU(inplace=True)
      (conv_pw): Conv2d(1536, 1536, kernel_size=(1, 1), stride=(1, 1), bias=False)
      (bn_pw): BatchNorm2d(1536, eps=0.001, momentum=0.1, affine=True, track_running_stats=True)
      (act_pw): ReLU(inplace=True)
    )
    (conv3): SeparableConv2d(
      (conv_dw): Conv2d(1536, 1536, kernel_size=(3, 3), stride=(1, 1), padding=(1, 1), groups=1536, bias=False)
      (bn_dw): BatchNorm2d(1536, eps=0.001, momentum=0.1, affine=True, track_running_stats=True)
      (act_dw): ReLU(inplace=True)
      (conv_pw): Conv2d(1536, 2048, kernel_size=(1, 1), stride=(1, 1), bias=False)
      (bn_pw): BatchNorm2d(2048, eps=0.001, momentum=0.1, affine=True, track_running_stats=True)
      (act_pw): ReLU(inplace=True)
    )
  )
)
2025-05-23 13:13:21,226 - INFO - CAM-Auswahl gespeichert: gradcam\celebdf_train_ff_test\xception41\scaled\cam_selection.csv
2025-05-23 13:13:21,261 - INFO - Grad-CAM gespeichert: gradcam\celebdf_train_ff_test\xception41\scaled\FN_1_fake_879.jpg
2025-05-23 13:13:21,296 - INFO - Grad-CAM gespeichert: gradcam\celebdf_train_ff_test\xception41\scaled\FN_1_fake_890.jpg
…
