…
2025-05-19 07:53:32,842 - INFO - GPU Speicher belegt: 114.21 MB, reserviert: 1940.00 MB
2025-05-19 07:53:32,847 - INFO - Accuracy:  0.7124
2025-05-19 07:53:32,847 - INFO - Precision: 0.6724
2025-05-19 07:53:32,847 - INFO - Recall:    0.7953
2025-05-19 07:53:32,847 - INFO - F1-Score:  0.7287
2025-05-19 07:53:32,847 - INFO - Confusion Matrix: TN=397, FP=229, FN=121, TP=470
2025-05-19 07:53:32,847 - INFO - Durchschnittliche Vorhersagezeit pro Bild: 0.0001 Sekunden
2025-05-19 07:53:32,856 - INFO - Target-Layer für Grad-CAM: XceptionModule(
  (stack): Sequential(
    (conv1): SeparableConv2d(
      (conv_dw): Conv2d(1024, 1024, kernel_size=(3, 3), stride=(1, 1), padding=(1, 1), groups=1024, bias=False)
      (bn_dw): BatchNorm2d(1024, eps=0.001, momentum=0.1, affine=True, track_running_stats=True)
      (act_dw): ReLU(inplace=True)
      (conv_pw): Conv2d(1024, 1536, kernel_size=(1, 1), stride=(1, 1), bias=False)
      (bn_pw): BatchNorm2d(1536, eps=0.001, momentum=0.1, affine=True, track_running_stats=True)
      (act_pw): ReLU(inplace=True)
    )
    (conv2): SeparableConv2d(
      (conv_dw): Conv2d(1536, 1536, kernel_size=(3, 3), stride=(1, 1), padding=(1, 1), groups=1536, bias=False)
      (bn_dw): BatchNorm2d(1536, eps=0.001, momentum=0.1, affine=True, track_running_stats=True)
      (act_dw): ReLU(inplace=True)
      (conv_pw): Conv2d(1536, 1536, kernel_size=(1, 1), stride=(1, 1), bias=False)
      (bn_pw): BatchNorm2d(1536, eps=0.001, momentum=0.1, affine=True, track_running_stats=True)
      (act_pw): ReLU(inplace=True)
    )
    (conv3): SeparableConv2d(
      (conv_dw): Conv2d(1536, 1536, kernel_size=(3, 3), stride=(1, 1), padding=(1, 1), groups=1536, bias=False)
      (bn_dw): BatchNorm2d(1536, eps=0.001, momentum=0.1, affine=True, track_running_stats=True)
      (act_dw): ReLU(inplace=True)
      (conv_pw): Conv2d(1536, 2048, kernel_size=(1, 1), stride=(1, 1), bias=False)
      (bn_pw): BatchNorm2d(2048, eps=0.001, momentum=0.1, affine=True, track_running_stats=True)
      (act_pw): ReLU(inplace=True)
    )
  )
)
2025-05-19 07:53:32,866 - INFO - CAM-Auswahl gespeichert: gradcam\celebdf_ff\xception41\standard\cam_selection.csv
2025-05-19 07:53:32,903 - INFO - Grad-CAM gespeichert: gradcam\celebdf_ff\xception41\standard\FN_real_891.jpg
2025-05-19 07:53:32,940 - INFO - Grad-CAM gespeichert: gradcam\celebdf_ff\xception41\standard\FN_real_908.jpg
…
